Module_6/Week_1/MNIST/data/lenet_model.pt (torch, 250480 bytes, 10 tensors)

conv1.weight f4 [6, 1, 5, 5]
000000 e2 df ef 3d d0 6a 70 bd fc 47 43 be 1e f1 1e 3d
       0.11712624 -0.058695614 -0.19070429 0.038804166
000010 52 b6 ae 3d 30 c9 35 be 27 97 48 be b4 3e 3e 3e
       0.085308686 -0.17752528 -0.1958891 0.18578607
000020 5c e9 ae bd da 4d 25 3e 9a 89 e5 3d 8c 13 e2 bd
       -0.085406035 0.1614298 0.11207886 -0.110388845
000030 ce d9 2f 3e 44 e8 bd bc 57 48 30 3e 8a 42 2a 3e
       0.1717293 -0.023182042 0.17215095 0.16626945
000040 4b 4a b9 3d d9 fc de bd 25 6d 48 3e 5c 49 a4 3d
       0.090473734 -0.108880706 0.19572885 0.08021805
000050 bd 68 a0 3d cb 61 86 3d a9 ab ec 3c 8a a6 04 be
       0.07832477 0.06561621 0.028890448 -0.12954155
000060 72 84 0b 3d ac 03 63 bd 72 06 51 3e 8a b6 28 3e
       0.034061857 -0.055423424 0.20412615 0.16475883
000070 5d 19 7e 3e 91 75 ba 39 4d 27 a3 bb 3a 82 55 3d
       0.24814363 0.00035564278 -0.0049790503 0.052126147
000080 69 fc 55 3d 91 0b 4d 3e d3 2a 2d be 0e fb 53 3e
       0.05224267 0.20023943 -0.16910867 0.20701239
000090 86 6d 8b 3e 37 76 b6 3d 34 53 2a be 58 bb 6d be
       0.27231997 0.089092664 -0.16633302 -0.23215997
0000a0 42 e4 68 3e b8 70 43 3e 47 d2 e8 bd 63 cc cc bd
       0.22743323 0.19085968 -0.11368232 -0.09999921
0000b0 fe 87 2a be ae ab 96 3d 38 f2 c7 bd 85 68 7f be
       -0.1665344 0.07356964 -0.097629964 -0.24942215
0000c0 22 ce 82 be 30 42 5e be 5b 65 b6 bd be fb a0 3e
       -0.25547892 -0.21704936 -0.08906051 0.31442064
0000d0 97 14 48 3d 72 1b fb bc ff ed 25 3e d3 28 ad 3e
       0.04884776 -0.030652735 0.1620407 0.3382021
0000e0 67 36 21 3e 15 39 19 3e 94 f0 70 3e 0c 32 22 3e
       0.15743409 0.14963181 0.23529273 0.15839404
0000f0 4d e8 18 3e 73 91 e0 bd da db d4 3d 09 8e 36 3e
       0.14932366 -0.10965242 0.10393496 0.1782762
000100 77 9d 3b be 46 bd a4 be 57 28 6b be 9f d2 b7 be
       -0.18321787 -0.32175654 -0.22964607 -0.3590288
000110 2f 2b 14 be a7 30 02 3e e4 61 30 be c7 bb 36 be
       -0.14469598 0.12713872 -0.17224842 -0.17845069
000120 52 db e4 bd 0e 5f 85 be 14 7a 8d 3b cf c2 68 bc
       -0.111746445 -0.26049083 0.0043175314 -0.014206602
000130 e1 9b b9 bd a5 15 21 be 7c 54 d0 bd 69 80 4e be
       -0.09062935 -0.15730913 -0.10172364 -0.20166172
000140 b8 ba 43 be aa f6 ed bd d4 77 51 bd d0 0b 8b bd
       -0.19114196 -0.11619313 -0.051139668 -0.067893624
000150 70 85 08 be 20 4d 77 be d7 ee 60 be d9 fd 96 be
       -0.13332152 -0.24150515 -0.2196611 -0.29490545
000160 a7 b1 35 be 0b 94 81 be 42 3c 2c be 03 61 8c 3d
       -0.1774355 -0.2530826 -0.16819862 0.06854441
000170 ce c7 52 3e b3 a2 9a 3d dd 45 56 3d 34 e0 7c 3e
       0.20584032 0.07550564 0.05231272 0.24694902
000180 eb 1f 20 3e 49 76 42 3e cf 3c a0 3e fb 38 8f 3d
       0.15637176 0.18990435 0.31296393 0.0699329
000190 1e d0 15 be a6 2d 07 3e e0 1c 84 3c 92 ee 6e 3c
       -0.14630172 0.13201007 0.01612705 0.014583247
0001a0 e5 4c 67 bc 73 02 22 3e d0 3b 19 be 11 7a c5 bd
       -0.014117454 0.15821247 -0.14964223 -0.09642423
0001b0 e3 4e 10 3e a5 3a 0b be ef e5 fb 3d fd 2a 03 3e
       0.14092593 -0.1359659 0.12299716 0.12809367
0001c0 cf 47 13 3e e1 60 35 be b6 11 46 bc ed 8a 15 3e
       0.14382862 -0.17712738 -0.012089184 0.14603777
0001d0 a7 a5 3f 3e 20 07 e2 3d b4 36 37 be 3f 65 41 bc
       0.18715535 0.11036515 -0.17891961 -0.011803924
0001e0 d1 0a b3 bd 16 e6 5b 3e 99 f3 ab 3d 10 8c 68 3d
       -0.087422974 0.2147449 0.08396072 0.0567742
0001f0 33 dc 8a bd 07 04 1b 3e f3 07 de bd 6a 73 f1 3c
       -0.06780281 0.15138255 -0.1084136 0.029473979
000200 9a 72 8e be 3c 21 59 bd 99 84 0e be 2f 08 6e be
       -0.2782181 -0.05301021 -0.1391777 -0.2324531
000210 ca 53 7f be cd 08 f2 bd e0 1c bb bd 02 8b 04 3e
       -0.24934307 -0.11818085 -0.09136367 0.12943652
000220 f7 ae 0b bd a0 49 55 be c3 ab dd bd 63 e2 92 3e
       -0.034102406 -0.20828867 -0.108237766 0.28688344
000230 ca 3e 7e be 3c 2e 87 be 41 0e 64 be 0d e1 75 3e
       -0.2482864 -0.26402462 -0.22271062 0.24011631
000240 f0 e5 96 3e bc fb 89 be af b3 27 be 3f 90 a0 3d
       0.29472303 -0.2694987 -0.16377138 0.07840013
000250 74 c7 2a 3e e1 14 d0 3d
       0.16677648 0.10160232

conv1.bias f4 [6]
000000 04 c4 ec 3d ae 5f a2 bd 30 ea 37 3d 7d a9 f7 bc
       0.115608245 -0.07928406 0.044901073 -0.030232185
000010 32 87 fe 3d e3 05 19 3e
       0.1242813 0.14943652

conv2.weight f4 [16, 6, 5, 5]
000000 5f dd 23 bd c5 fd 09 bd 49 a4 08 bd 1d f8 8a bd
       -0.040006038 -0.03368928 -0.0333598 -0.06785605
000010 9f 63 ab bc 5a 70 9d bd 91 9f 2f be 63 51 04 be
       -0.020921526 -0.07687445 -0.17150714 -0.12921672
000020 df 9c 7a bd d8 21 d5 bd 3b 01 09 bd a7 fb 82 bd
       -0.06118476 -0.10406846 -0.03344844 -0.06395655
000030 1a 5d b9 bd 02 6e 01 3d 2a 53 b3 bd 52 bf 25 bd
       -0.09050961 0.031599052 -0.08756097 -0.04046566
000040 6c 4a d3 bc 65 11 40 bd b3 51 5f bd 25 b4 07 be
       -0.025792323 -0.04689159 -0.054521274 -0.13252313
000050 fb fb bf 3d ab d9 fe 3d 7e 68 89 3c ca a0 c1 3c
       0.09374233 0.124438606 0.016773459 0.02363624
000060 97 f5 32 3d 42 1b c2 bc 61 af 4b 3c d0 fe 28 3e
       0.043691244 -0.023694638 0.01243195 0.16503453
000070 83 b3 01 3e de e5 89 3d 70 74 ca bd c5 bb 80 bd
       0.12666135 0.06733297 -0.0988549 -0.06285814
000080 3d 6a 0d 3e 19 fc 43 3e 00 ee af 3d 9a 0a 24 be
       0.13810058 0.19139136 0.08590317 -0.16019669
000090 4e f6 18 bd f9 e3 a8 3d 99 48 59 3d 53 8d f0 3d
       -0.03734427 0.08246607 0.05304775 0.117457055
0000a0 39 30 08 3d 70 d3 97 3d d6 81 ca 3d 95 7f 1a 3e
       0.033249114 0.074133754 0.098880455 0.15087731
0000b0 51 c9 c1 3d e7 2a 20 3e f8 cb a0 bc 1d 50 c6 3b
       0.09462226 0.15641366 -0.01962851 0.0060520307
0000c0 33 48 51 3d fc 74 c0 bc db d7 81 bd 4a 54 01 3e
       0.051094245 -0.023493282 -0.06339999 0.1262981
0000d0 2b d0 37 3e 8e 41 ae 3c 30 83 97 3c 8e 6b f4 bd
       0.17950504 0.021271493 0.018495172 -0.11934577
0000e0 d1 24 2f bd df b3 9b 3d 0f b5 dc bd 20 1b 11 bd
       -0.04275972 0.07602667 -0.10776722 -0.03542626
0000f0 22 67 4a be 1d 25 b2 bc f5 7d 81 bd 21 19 33 be
       -0.19765905 -0.021746213 -0.063228525 -0.17490055
000100 0c fb 0a bd 72 71 f3 bd c4 6a 5b bd 7f aa 22 3a
       -0.033930823 -0.11886872 -0.053568617 0.00062052155
000110 36 e4 5d bd 2e a8 c7 bd a1 1a ce bd ab 7e 63 bd
       -0.054172717 -0.097488746 -0.10063673 -0.055540722
000120 fb ed 07 be e9 ac d8 bd 1d 11 04 be af 80 a0 bd
       -0.13274376 -0.10579855 -0.12897153 -0.078370444
000130 40 a1 af bd 20 e4 5b bd a4 a6 2d bd 3b 45 0d be
       -0.08575678 -0.053684354 -0.04239525 -0.1379594
000140 2d 06 9f 3b 11 ec 78 3c 27 57 85 bc e4 ef 8b bd
       0.004853031 0.015193001 -0.016276909 -0.06832865
000150 e1 d7 07 3d a3 0c 8b 3c 60 d3 b7 bc 91 89 59 bd
       0.033164863 0.0169738 -0.022439659 -0.05310971
000160 bf c9 42 bc d0 11 a8 bc 21 45 32 3d 2e d7 f1 bb
       -0.01188892 -0.020516306 0.043522958 -0.0073803877
000170 1f 20 0a 3c ab 18 c7 3d 2f 6d 29 bd d5 e2 8e 3d
       0.00843051 0.09721502 -0.04136389 0.069768585
000180 29 1c ac 3d ea 3f 4d bd c3 67 4c bc 4c ec 91 3d
       0.084038086 -0.05010978 -0.012475911 0.07125148
000190 19 a3 d3 bc 71 9d 1f be b9 e9 81 bd b7 99 c1 3c
       -0.025834607 -0.15587403 -0.06343407 0.023632867
0001a0 9a a4 93 3d 13 65 06 be 72 37 dd bd d4 df 09 be
       0.0720913 -0.13124494 -0.10801591 -0.1346429
0001b0 28 73 be bc c7 8e cb bd ff f8 9e bd 33 7f cb bc
       -0.02324827 -0.09939342 -0.07762336 -0.024840927
0001c0 69 ba 31 3d ef 1b bb bd a6 e2 ee bd 9b 60 89 bd
       0.043390665 -0.09136187 -0.116643235 -0.06707879
0001d0 c6 ed e4 bc 06 d9 d1 bc 04 4d 90 3c fe e5 b4 bd
       -0.02794541 -0.02561618 0.017614849 -0.0883293
0001e0 e0 dd 93 3d 1d 40 8b 3d 44 70 83 3d 06 a1 fa 3c
       0.07220054 0.06799338 0.06417897 0.03059436
0001f0 5d e8 13 bc 23 5d 4b bd 00 51 a2 3d 06 fa f1 3d
       -0.009027568 -0.04964937 0.07925606 0.11815266
000200 29 a3 fe bc 3f 20 12 bc e9 c4 68 3d ff 12 0a 3d
       -0.03108366 -0.008918821 0.056828413 0.033709522
000210 fa 5d 20 3d 50 5f 68 3c e7 41 1d 3d 48 8d ef 3c
       0.039152123 0.0141828805 0.038392927 0.029242173
000220 c4 a8 00 3e c1 07 86 3d ed 26 dc 3d 6a 2e 15 3d
       0.12564379 0.06544448 0.10749612 0.036421217
000230 40 f1 48 b9 11 50 f7 3d c2 4b 20 3c 4f e8 97 3c
       -0.00019163359 0.12075818 0.009783687 0.01854339
000240 9d 3a 21 3c 6e 00 fc 3c f7 8f 0f 3e fc 7c 3a 3d
       0.009840635 0.030761924 0.14019762 0.04552935
000250 f8 90 52 bd 76 d5 05 bc 4c 76 da bb 17 e5 b2 3a
       -0.051407784 -0.008168569 -0.006666934 0.0013648596
000260 7b 22 17 bd 0f e4 52 3d 2f ec 8c 3c 29 91 8c 3d
       -0.036898118 0.051487025 0.017202465 0.068636246
000270 66 f5 cc bc d7 0f 57 3c dd 86 ac 3d 73 f8 73 3c
       -0.025019359 0.013126335 0.08424161 0.014890778
000280 28 ad 99 3d 1a f7 76 3d 41 f8 4a 3d ee fd 99 bd
       0.0750373 0.06029425 0.04955316 -0.07519136
000290 d6 f6 ce bd 2b 4a ec 3c c2 6f 7f bb ba 59 62 bd
       -0.10105674 0.02884396 -0.0038976525 -0.05526135
0002a0 4b 37 98 bd ab f9 bf bc 12 83 5f 3c 6d 78 6d 3d
       -0.07432421 -0.02343448 0.013642089 0.057976175
0002b0 a4 a4 3e 3c 06 76 60 3c 04 ae 2c 3d 92 75 24 3e
       0.011635933 0.013700014 0.04215814 0.16060475
0002c0 6c a0 c3 3d 05 4e 11 3e 97 74 d9 3d 5e 77 c6 3d
       0.095520824 0.14189918 0.10617941 0.09690736
0002d0 a4 00 6d 3d 9c ac 2d 3e 5b 15 d5 3d d4 b3 0d 3e
       0.05786194 0.16960377 0.10404464 0.1383813
0002e0 e6 84 25 3e 69 9e aa 3d eb 5b 2c 3e 0f 3b 16 3e
       0.16163978 0.083309956 0.16831939 0.14670967
0002f0 0a 0a 8c 3d 73 f3 63 bd 3f 19 c5 3d 95 dd 72 3d
       0.06837852 -0.055652093 0.09623956 0.05929335
000300 7c 38 74 bd ef e8 19 be 7a d9 8b bd 0a 5d 3c bc
       -0.05962418 -0.15030263 -0.0682859 -0.011496792
000310 9b ef 08 be 68 a3 47 be 72 54 07 be 56 4b cd bd
       -0.13372652 -0.19495928 -0.13215807 -0.10024135
000320 23 fd 50 3b 17 21 18 be e7 af ae bd d5 3a 1a be
       0.0031889162 -0.14856373 -0.085296445 -0.15061505
000330 4e 0f 6a 3d c6 8d f6 bd 5f 96 58 be ff 54 2e be
       0.057143502 -0.1203876 -0.21151112 -0.17024611
000340 4b 69 a4 bd 2e ee da 3c e0 ff a2 bd 65 19 e7 bd
       -0.080278955 0.026724901 -0.079589605 -0.112841405
000350 fd 57 4f be 40 1d d6 bd 37 90 0f 3c a4 d6 d9 bd
       -0.20248409 -0.10454798 0.008762411 -0.106366426
000360 c7 74 a3 be d4 af 3d be 18 7e a7 3c 3e 56 d7 bc
       -0.31925032 -0.18524104 0.020445868 -0.02628624
000370 dc 85 01 bb 9c 66 3e be 2e 55 a9 bc ab e9 d9 bc
       -0.0019763624 -0.1859383 -0.0206705 -0.02660068
000380 45 c7 67 3d 38 8a 44 be fe b9 1d be 7c a3 07 be
       0.056586523 -0.19193351 -0.15402982 -0.13245958
000390 21 0a a3 3d fd 16 a9 3c 47 d5 fd bd 72 9d 94 bd
       0.07960916 0.020640844 -0.12394195 -0.07256593
0003a0 a0 cb 8a bd 16 ae 58 bd 2e 22 a2 bc 04 40 79 be
       -0.0677712 -0.052900396 -0.019791689 -0.24340826
0003b0 f4 59 58 be 24 dc 40 bd 01 77 43 bb 0c cb e6 bd
       -0.21128064 -0.047084942 -0.002982557 -0.11269197
0003c0 dd 1e d9 bd ec 6a 08 bd f8 6b ad 3d 4a 98 e9 3d
       -0.1060159 -0.033305094 0.08467859 0.11406
0003d0 17 f9 87 bd 05 3f f7 bd 85 9f d3 3c 44 cd 04 3e
       -0.06639307 -0.12072567 0.0258329 0.12968928
0003e0 d1 07 0b 3e 08 4f 27 3d b5 e1 88 3d 20 3e 9d 3d
       0.135772 0.040846854 0.06683675 0.07677865
0003f0 e3 4e 34 3d 4d 30 76 3d 74 c9 5a bd f4 ed a2 bd
       0.044020545 0.060104657 -0.053414777 -0.07955542

conv2.bias f4 [16]
000000 60 1f 56 b7 b1 9d 6b 3d 57 b1 21 3d 14 f6 da 3c
       -1.2762699e-05 0.057523433 0.039475765 0.026728667
000010 bf cb 88 3c e6 c5 8f bd 44 8d 8b bc 62 98 7d bc
       0.016698716 -0.07020168 -0.017035134 -0.015478225
000020 a0 04 45 bd 7a f1 3b 3c b4 0c b8 bc 17 b9 fa 3c
       -0.048100114 0.011471147 -0.022466995 0.030605836
000030 d2 6e b7 3d 69 0f 8e 3d 0f ff 40 bd 21 c2 b6 bc
       0.08956684 0.06936533 -0.047118243 -0.022309365

fc_1.weight f4 [120, 400]
000000 dd 54 47 3c 54 15 60 bd 62 34 93 3d e3 17 3c 3d
       0.012166229 -0.05470784 0.071877256 0.045921218
000010 bc c1 ae 3d 15 90 89 bd dc ba 73 3c ec 3f ed bc
       0.08533046 -0.067169346 0.014876094 -0.028961144
000020 f1 a0 bf 3b 96 00 e9 bb e1 34 4c bd 19 84 f0 3b
       0.005848043 -0.0071106656 -0.049855117 0.007339966
000030 bf 7d 4f 3d 03 ab cc bb e9 9b 26 3c e3 d0 ea 3c
       0.05065703 -0.006245972 0.010169008 0.028664058
000040 74 e5 09 3e ac 0c 80 3c 15 8d 43 3c cc d9 a5 3d
       0.13466436 0.015631042 0.011935492 0.08098182
000050 c8 d8 51 3d 29 3d a4 3d 8b f8 8c 3d f4 66 b6 3c
       0.05123213 0.08019478 0.06883343 0.022265889
000060 74 ba ae bc 46 27 09 bd 89 0b 25 bd 84 e0 02 bb
       -0.021329142 -0.03348472 -0.040294204 -0.0019970248
000070 ab 5f 15 3c cf 4c c4 bc 00 de 65 bd c5 12 02 be
       0.009117047 -0.023962406 -0.05611992 -0.12702473
000080 2f 22 76 bb 8f 98 56 3d 64 45 5e 3d 0e d5 61 bd
       -0.0037556996 0.052391585 0.054265395 -0.055134825
000090 a0 00 50 3d 05 e1 c6 3c f1 ab 5d 3d db 85 11 bd
       0.050781846 0.02427722 0.054119054 -0.035528045
0000a0 14 14 46 bd e8 12 3b bd ce fd f8 3d c3 0e ae bc
       -0.04835899 -0.045672327 0.121577844 -0.021247273
0000b0 f3 c2 25 bd 29 3a e5 3b c3 44 ad 3d 76 9a 02 3e
       -0.04046912 0.0069954586 0.08460381 0.12754235
0000c0 7a d8 3a 3d ca 62 b5 bc a9 f2 33 bd d1 9d e4 ba
       0.045616604 -0.022141833 -0.04393259 -0.0017442052
0000d0 a0 ed d7 bd 91 07 2b 3d aa 32 fc 3c 2c 3b bc 3d
       -0.1054337 0.041755263 0.030785877 0.09190974
0000e0 42 af e4 bb 54 b0 67 bd 7e 0f c8 bd 19 fc 68 bc
       -0.0069789 -0.056564644 -0.0976858 -0.014220261
0000f0 4f 97 2a bc bf 51 31 bd 73 97 99 3c e6 e4 b0 3c
       -0.010412051 -0.04329085 0.018748974 0.021593522
000100 88 07 c6 3c 7c 47 93 3d 19 ce bf 3b a6 8d 6c 3d
       0.024173513 0.07191369 0.005853426 0.057752274
000110 45 9a 0f 3d 6f 0e 03 3a 6a 85 04 3d d1 d5 8e bd
       0.035059232 0.0004999404 0.032353796 -0.06974376
000120 e5 bc a0 3c 2b a9 99 3b fc 72 90 3c 62 24 af 3d
       0.019621322 0.004689356 0.017632954 0.08551861
000130 16 e9 93 3c 82 88 25 bd c1 1a 39 3d dc f4 fe bd
       0.01805548 -0.040413387 0.04519153 -0.12449047
000140 37 76 2b 3c e8 28 cf bc 63 e9 26 3c e9 b5 92 3c
       0.010465196 -0.02528806 0.01018748 0.017909007
000150 5e 99 e3 bc 9f f7 62 bd 3a 97 26 3c 70 e1 12 3c
       -0.027783092 -0.05541193 0.010167891 0.008964881
000160 f7 3a 87 3d d4 5c df 3d 1b fd ef bc af 4d 73 3d
       0.066030435 0.109063774 -0.029295495 0.059400257
000170 78 75 a8 b7 c2 16 9e 3d 43 d7 28 bc 9b 6c 09 bc
       -2.0081861e-05 0.077191845 -0.010305229 -0.00838771
000180 ae fc 61 bd a6 ee 56 3b 72 da e8 bc 92 11 41 3c
       -0.055172615 0.0032796054 -0.028424475 0.011783974
000190 6f 1a 97 3c 97 ca 33 bd b1 5e 87 3c a4 0d b0 bd
       0.018445222 -0.043894377 0.016524645 -0.08596352
0001a0 ad db 15 3d e0 7a bd 3c 5d 3e bd 3c 42 7f b6 3d
       0.036586452 0.02312988 0.023101026 0.08910991
0001b0 80 8c 7b 3d 73 19 cc 3d 2d 90 40 bd b2 ab c5 3c
       0.061413288 0.099657916 -0.047012497 0.024129722
0001c0 21 57 5a bc 07 9c 93 3d 8d cf 97 3d 84 a4 61 bc
       -0.013326437 0.07207494 0.07412634 -0.013772134
0001d0 af f1 cf bc 34 40 80 3b e2 42 74 bc 77 85 86 bc
       -0.025383798 0.0039139036 -0.014908524 -0.016421063
0001e0 54 11 93 3d 98 e9 af bd f9 23 17 be 2f c1 df bb
       0.071810395 -0.08589476 -0.14759816 -0.006828449
0001f0 0d ae 90 3d 37 d6 27 3b 6d a4 24 bd ff 97 0f bd
       0.070644476 0.002560986 -0.04019587 -0.035057064
000200 18 31 c8 3c b0 e0 a2 3d e5 c5 2b bc 15 14 92 3b
       0.024437472 0.07953012 -0.010484193 0.0044579604
000210 5c a1 86 3d 44 5d 92 bd 10 36 64 bd 4f ef 36 3d
       0.065737456 -0.07146695 -0.05571562 0.044661816
000220 d1 fd cd 3c 48 da 58 3c d5 8c 7a 3d 2a 4d 0f 3c
       0.025145443 0.013235636 0.061169464 0.008746425
000230 d7 38 38 bd ec a1 71 3d f8 a4 07 3d 52 79 8a 3d
       -0.04497608 0.05899231 0.03311631 0.06761421
000240 38 fc 62 bd b5 1c a5 bb 0e 0f ae bc df 91 7d bc
       -0.055416316 -0.0050388225 -0.021247413 -0.015476673
000250 40 99 e4 bc 03 21 95 bd d3 0e 9e 3c d4 c7 41 bb
       -0.027905107 -0.07281687 0.019294178 -0.002956857
000260 c0 fa ed 3c 40 22 10 3d ff c8 56 3c 50 62 10 bd
       0.029050231 0.035188913 0.013109445 -0.035250008
000270 b6 93 21 bd be f9 a9 bc 7d 43 95 3d f7 70 e8 3d
       -0.03944751 -0.02074897 0.07288263 0.11349671
000280 fa b6 51 bd 3f 6c 94 bc 55 4d 08 bc e4 ad 2a 3d
       -0.05119989 -0.018118022 -0.008319219 0.04166974
000290 e5 a0 d9 3d 81 ab 09 bd dd 63 74 bd 23 35 0e ba
       0.10626391 -0.033610824 -0.05966555 -0.0005424788
0002a0 b7 85 b6 3c 86 4e 3f bd ed fe 2a bd d4 7c bb 3d
       0.022280557 -0.046705745 -0.041747022 0.091546685
0002b0 25 32 b9 3d f7 8b 38 3e f2 bf 9e bc 4e 0a 90 bd
       0.090427674 0.18022142 -0.019378636 -0.070332155
0002c0 aa 5c 20 be 4d a6 85 3c ec df c5 3c 9a 89 a0 b8
       -0.15660349 0.01631465 0.024154626 -7.655025e-05
0002d0 9f 59 37 bb 15 25 33 3d 48 ee 68 3d db bb db 3d
       -0.0027977002 0.043736536 0.056867868 0.1072919
0002e0 2c 5b e4 3c e0 c7 97 3d 09 46 f6 3c c6 da 07 3d
       0.027875505 0.0741117 0.030062692 0.033167623
0002f0 26 31 7e 3d 4a 89 fb 3c 22 89 0a 3e 30 29 b5 bc
       0.06205859 0.030705113 0.13528875 -0.022114366
000300 11 8f e7 bb 76 63 8f bc 2a 92 6d 3c 06 08 c1 3d
       -0.0070666154 -0.017503481 0.01450018 0.094253585
000310 1b be 07 bd 05 77 dd bd dc 85 f0 bd 1d d8 1a bc
       -0.033140283 -0.10813717 -0.11744282 -0.0094509395
000320 0f 0a ba bd 14 88 e6 bc 9b 8f 14 3d 2d 41 32 3d
       -0.0908395 -0.028141059 0.036269765 0.043519188
000330 3e fc 2b 3d b8 4a 02 bd 60 ea 87 bc ed 7b f0 bc
       0.041988604 -0.03180954 -0.01659125 -0.029355967
000340 ce 1e 32 3d 1d 11 a1 bd b0 65 78 bc 13 46 30 bd
       0.04348641 -0.07864592 -0.015160963 -0.043035578
000350 80 c6 11 bd ac 4a eb 3c 87 58 64 bb 7e 5c 6e 3d
       -0.035589695 0.02872213 -0.0034842805 0.058193676
000360 a4 7d 82 3c 61 53 96 3d ca 88 ac 3d 34 ee a0 3b
       0.01592905 0.07340122 0.08424528 0.0049112085
000370 6c 5f a2 3d fe ce 9f bc 77 57 d2 3d 6b 52 2d 3d
       0.079283565 -0.019507881 0.10270589 0.042314928
000380 9c 4f cf bd d4 64 9b 3d b4 8b 07 bd 15 c6 2a bd
       -0.10122606 0.07587591 -0.033092216 -0.041692812
000390 36 73 b6 bd 56 50 81 bd 74 7a 87 3d 75 cc 8e bd
       -0.089086935 -0.06314151 0.06615153 -0.06972591
0003a0 d3 29 97 3c 1d cf af bb 7a 35 3a 3d f2 c7 50 bd
       0.01845256 -0.005365266 0.045461155 -0.050971933
0003b0 40 82 52 bd 77 d0 1f 3d cf 77 3b 3d e0 04 5b 3d
       -0.051393747 0.039017167 0.045768555 0.053471446
0003c0 70 fb 53 3c ed 7c f1 3c b2 b2 d9 3b 73 dd 1c bd
       0.012938365 0.029478515 0.0066436166 -0.038297128
0003d0 26 9c 80 3d 8c 62 af 3c 10 e5 89 3d c0 a0 49 3c
       0.06279783 0.021409295 0.06733143 0.012306392
0003e0 44 f7 62 3d 44 0e 2c 3d fc bf ca bc 3e 5d 93 bb
       0.055411592 0.042005792 -0.024749748 -0.0044971993
0003f0 aa d0 c2 bd 51 ac 26 bd cd 4c 8c 3c 98 7e 1b 3d
       -0.09512456 -0.040691677 0.017126465 0.037962526

fc_1.bias f4 [120]
000000 45 fa 49 bd 0a 27 04 bd 8e f0 e1 3c 39 c5 56 bb
       -0.04931094 -0.032263793 0.027580526 -0.0032771362
000010 95 ba be 3c 95 49 f3 bc 46 41 5c 3c 3b 82 d6 3b
       0.023282329 -0.029698173 0.013443297 0.0065462864
000020 a0 24 fc bc 49 a0 2e 3c 6e 0e 19 3d 9a 04 da ba
       -0.030779183 0.010658332 0.037367277 -0.0016633451
000030 cb d8 26 3d d8 bc d5 bc 34 49 fd bb 53 5b db 3c
       0.040734094 -0.026091024 -0.0077296738 0.026776945
000040 0a 55 ca 3b 4e a3 2d bd 51 09 32 bc e1 aa 11 3d
       0.006174688 -0.042392068 -0.010866479 0.035563353
000050 01 99 af bd 82 f5 c1 3c 34 98 09 3c 94 a1 cb bc
       -0.08574105 0.023676638 0.008398104 -0.02485732
000060 aa e2 df bb 38 aa e8 3c 9e 7b 1a bc 70 70 14 3d
       -0.0068324404 0.02840148 -0.009428887 0.03624004
000070 69 1a 08 3c ee 0d 3b bc 8e 1b 34 3c ee 0f 76 3c
       0.008307078 -0.011416895 0.010992898 0.015018446
000080 e3 e0 b9 bc 61 43 22 bd c1 90 15 3d 42 d2 8f 3c
       -0.022690242 -0.03961504 0.036515 0.017556313
000090 30 bb 60 3d de d3 89 bc 5a d6 f6 3c 1e 20 a6 3c
       0.054866016 -0.016824659 0.030131508 0.020278987
0000a0 1f e9 09 bd 7d b5 0f bd a5 ea 84 bc 5e 30 0e bc
       -0.033669587 -0.03508519 -0.016225168 -0.008678524
0000b0 84 10 a2 bc 5c 40 ad 3c 4a 43 cd bd b9 cd 12 bd
       -0.019783266 0.021148853 -0.100226 -0.035840724
0000c0 32 2e 00 bd 48 bc d3 bc 66 86 d8 bc 75 14 9b 3d
       -0.031294055 -0.025846615 -0.026431274 0.07572261
0000d0 c2 b8 1f 3d 69 9a 2a 3c 45 52 b2 bc 44 d5 b3 bc
       0.03899456 0.010412791 -0.021767745 -0.021952279
0000e0 59 a0 5a bd 9c c8 96 bc 35 2b ae 3c fc a1 8e bb
       -0.053375576 -0.018406205 0.021260837 -0.004352806
0000f0 1d 77 7c 3a 69 13 4c 3d fa d5 16 3d 0a 56 ea bc
       0.00096307864 0.0498232 0.036825158 -0.02860548
000100 c1 5f 88 bc f6 f4 b5 bd 3f 2d 0e bc d0 a2 dc bc
       -0.016647222 -0.08884613 -0.00867778 -0.026933104
000110 a0 f4 3a bc f7 d3 b0 3c e1 7f 8b bc ab f2 12 bd
       -0.011410862 0.021585448 -0.01702875 -0.035875957
000120 0b 7b 90 bd de 02 15 3d 1e bf 4a 3d e3 41 90 bc
       -0.070547186 0.036379687 0.04949867 -0.017609542
000130 6d 6d e1 3c 49 fd be 3b 49 9c 2f 3d 38 dd a9 bc
       0.027517999 0.005828534 0.042873655 -0.020735368
000140 be ca 1c 3c af 30 a7 3d 9e 2a 7e bc e8 5f 10 bd
       0.009569822 0.081635825 -0.01551309 -0.035247713
000150 17 1f f7 3c 22 1d 7f bd 47 87 d2 3c 60 ee a5 b9
       0.030166192 -0.062283643 0.02569927 -0.00031648856
000160 7d 75 ab 3c 87 7c a5 3d 42 75 e0 bc 71 d1 88 3c
       0.020930046 0.08080392 -0.027399663 0.016701432
000170 ab 52 52 bd fa 7a ce 3a 0a 50 5b 3d 65 ef df bc
       -0.05134837 0.0015753203 0.053543128 -0.027335832
000180 94 07 2b bc 0d ac bb bc d0 1f 1a bd 2b 47 2e 3d
       -0.0104388185 -0.022909189 -0.037627995 0.04254834
000190 85 f4 17 3d 16 ef db 3c 2a 87 5d bd 61 50 2b bc
       0.037098426 0.026847403 -0.05408398 -0.010456176
0001a0 dd bc 8c bd 43 79 d0 3c d7 7b fb 3b 79 b7 84 3d
       -0.0687196 0.025448447 0.007674675 0.06480307
0001b0 34 de 5f 3d 3b 21 72 bd 6a 74 72 3b cc 93 de 39
       0.05465527 -0.059113722 0.0036995658 0.00042453257
0001c0 c3 c2 38 3c 5c bc 52 3c 01 81 10 bd d5 5c 7f bc
       0.011276904 0.012862291 -0.035279278 -0.015586098
0001d0 31 cf bb 3c 35 82 79 3d e7 5a 33 3d d9 89 8c 3d
       0.022925945 0.06091519 0.043787863 0.0686223

fc_2.weight f4 [84, 120]
000000 f7 58 91 bd e1 8c f8 3d c4 08 5d bc aa b9 94 3d
       -0.07097047 0.121362455 -0.013490859 0.07261975
000010 3a b7 df bd 9d 8a 9a 3c 8e 48 92 3c aa e4 28 be
       -0.109236196 0.018864924 0.017856862 -0.16493478
000020 3d c6 c0 3b 04 3a 9d 3d 43 ac 8f bd e2 31 ab 3c
       0.005883007 0.07677081 -0.07015278 0.02089781
000030 c4 31 a3 3c 70 a4 4a bd 45 a9 3e 3d 75 19 73 3d
       0.019921191 -0.049473226 0.046548147 0.05935045
000040 bb 73 bb bd ff e2 ec 3d ed fc b0 bd 4e a2 d3 bd
       -0.09152933 0.115667336 -0.08641992 -0.103336915
000050 43 66 b7 3d de 5a b7 bd 52 a3 12 bd d1 53 8e bc
       0.08955052 -0.089528784 -0.035800286 -0.017373951
000060 58 0e 4b 3d 5e 00 8e 3d 41 7f a2 3d ab 88 07 bd
       0.049574226 0.06933664 0.07934428 -0.03308932
000070 33 65 04 be 32 cf 3f 3d c3 ae ae bd 91 61 2b bd
       -0.1292923 0.046828456 -0.08529427 -0.041841093
000080 b5 e4 05 3c 32 46 8a 3d 5a d0 22 3d 9b 04 97 3d
       0.008172204 0.0675167 0.03974948 0.07373925
000090 42 1c ef 3d fa 47 47 bd ef 15 69 bd fd 4a 16 be
       0.116753116 -0.048652627 -0.056905683 -0.14677043
0000a0 73 d5 e8 3d a2 f6 e7 bc ff c4 f6 3d 84 d4 6a bc
       0.11368837 -0.028315846 0.12049293 -0.014332894
0000b0 a6 2a b6 3d da 83 0c bd ec 29 0d 3d 2a 3d 35 bd
       0.08894853 -0.03430543 0.034463808 -0.044247784
0000c0 87 67 03 3e 76 d9 b1 3d 34 5c 1e 3a 51 e6 a4 bd
       0.12832461 0.086840555 0.0006040961 -0.08051742
0000d0 2a cc b5 bd f7 b5 89 bd 4e 37 6a 3d 1b a8 14 3e
       -0.08876832 -0.0672416 0.05718165 0.14517252
0000e0 9a 7b 60 3d 18 ee a6 bd 36 4d f0 3d 5c 8d bd bd
       0.054805376 -0.081508815 0.11733477 -0.09255478
0000f0 88 73 0c be 97 c3 aa bd 32 da b4 3d 20 e0 4a bd
       -0.13715947 -0.08338087 0.0883068 -0.04953015
000100 5a 7a 13 be 1a d4 9a bb 53 a9 27 3e c2 be 4b 3d
       -0.14402142 -0.0047249915 0.16373186 0.049742468
000110 de c0 4b bd 04 fd 2e 3e 80 90 13 3d 9b 47 39 3d
       -0.04974448 0.17088705 0.036026478 0.045234304
000120 a2 b3 6f 3a 30 22 e1 bd 04 b2 90 bb 73 5d e6 bc
       0.0009143894 -0.10992849 -0.0044157524 -0.028120732
000130 e5 32 1b be e7 4b a0 bd 14 88 01 3d 77 ed c2 bd
       -0.15156133 -0.07826977 0.031623915 -0.09517949
000140 da 4a 1e bd 57 48 0b be 65 c1 44 3d 27 4a d2 3d
       -0.038645603 -0.13601814 0.048035998 0.1026805
000150 74 6f ea 3d ad 5c 47 3d 4b 2f 0e 3e e5 80 f6 3c
       0.11447039 0.048672367 0.13885228 0.030090759
000160 36 b1 10 be 81 f9 14 be 80 77 3d bd 7a 80 d5 3d
       -0.141301 -0.14548303 -0.046256542 0.104248956
000170 d4 38 18 be f7 b2 de bc 5c 4a 2b bb 5d 51 f8 bc
       -0.14865428 -0.027184946 -0.002613685 -0.030312235
000180 1d 43 6f bc 57 8e 81 bc 20 26 33 3d be 1b e7 3d
       -0.014603403 -0.015814943 0.04373753 0.11284588
000190 5a ad b6 bd f4 c0 7f 3d 35 5b b1 3c 51 d4 53 bd
       -0.08919783 0.062439874 0.021649936 -0.051716153
0001a0 ac 7c ac 3d 52 6a bd 3d 42 6e c4 3b 7b 92 d8 bd
       0.08422217 0.092487946 0.005994589 -0.10574814
0001b0 42 21 0f be 4e 3b c2 bc 78 87 8a bd 19 4c f8 3d
       -0.1397753 -0.02370992 -0.0676412 0.121238895
0001c0 3a 9d 11 bd 21 f1 b8 bd 7e 85 b0 ba 30 80 19 3e
       -0.035550334 -0.09030367 -0.0013467518 0.14990306
0001d0 9d b2 e5 3d 0b dc ce bd a1 f6 b0 bd d1 60 e3 bd
       0.112157084 -0.101005636 -0.08640791 -0.11102451
0001e0 c0 42 8b 3d b2 5d 5b bb 8d 0b 52 bd ad a1 d2 bd
       0.06799841 -0.0033472595 -0.051280547 -0.102847435
0001f0 2c f2 a8 3d b9 1a bc bd 1c 58 af bd 8a 41 36 3d
       0.082493156 -0.091847844 -0.085617274 0.044496097
000200 72 35 c4 3d c5 0c dd bd 10 cc 2d bd 05 eb a4 bc
       0.095805064 -0.10793451 -0.042430937 -0.020131597
000210 f6 0c ac 3d 9c 4d 71 3d 78 63 46 bd f4 c8 12 bd
       0.084009096 0.058911905 -0.048434705 -0.035836175
000220 a4 69 00 be 9f e4 87 3d da 8b 8a bd f9 36 8f 3c
       -0.12540299 0.06635403 -0.06764956 0.017482268
000230 eb 34 4c 3c a7 f7 8b bd 95 84 05 bd d3 08 26 3d
       0.0124637885 -0.06834345 -0.032597143 0.04053576
000240 43 98 b7 3c 1b 84 01 3e 8a 55 4f bd 43 6d b1 bd
       0.022411471 0.1264805 -0.050618686 -0.08663418
000250 87 c0 24 bd 25 80 cd 3c 6d 8e 3f 3c a6 19 15 3d
       -0.04022267 0.025085518 0.011691672 0.036401413
000260 24 56 34 3d 66 3d 61 3d 2f 1e 03 be 83 7a df 3d
       0.044027463 0.054990195 -0.12804483 0.10912039
000270 79 9d 06 bd ab 61 d9 3c 06 0d 3f bc 56 05 72 3d
       -0.03286502 0.02653583 -0.01166082 0.05908712
000280 39 80 32 3c 9a 6c 82 3d 5e 4b 26 be 9d d2 d0 bd
       0.0108948285 0.0636837 -0.16239688 -0.10196421
000290 02 1f 85 bd de a0 35 bd ee 55 a8 bd 6a 65 1d 39
       -0.06500055 -0.044342868 -0.08219515 0.00015010466
0002a0 6c 22 9a 3d 5d 4f 4a bc 6e de 14 bd 3a 52 05 be
       0.07526097 -0.012348023 -0.036344938 -0.13019648
0002b0 cd 5b bb 3d d1 f0 b3 3c df 47 64 3c fa 5f 84 bd
       0.09148369 0.021965416 0.013933151 -0.064636186
0002c0 9c d2 d8 3b cb c5 66 bd 28 15 7c bc ed be cf bd
       0.0066169035 -0.056340974 -0.015385903 -0.10143838
0002d0 9b 51 94 bd 5a 01 a9 3c 54 e2 1f bd d8 c2 39 3d
       -0.072421275 0.020630527 -0.039034203 0.045351833
0002e0 b0 b5 2f 3e 3d 78 13 bd d3 79 0e 3e 99 91 fb 3d
       0.17159152 -0.03600334 0.1391366 0.1228363
0002f0 6c 10 ac bd 3c 48 2b bd b8 c5 93 3c 2c 33 71 3d
       -0.0840157 -0.041816935 0.018038616 0.058886692
000300 9d 1b 2e 3e 59 fd 0e 3e a1 71 cf bc 09 84 dd bc
       0.17002721 0.13963832 -0.025322737 -0.027040498
000310 89 c6 f9 bd c4 e1 6b 3d 17 02 bc bc 53 8b 2b 3d
       -0.12196071 0.057588354 -0.022950215 0.041880917
000320 bf a9 c0 3d 4c 54 21 3d eb 91 0a be 5b bf 72 3c
       0.094073765 0.039387032 -0.13532226 0.0148161305
000330 8c 56 07 3d 15 9a 5d 3d 45 a0 c3 bd 84 a8 c3 bd
       0.033041522 0.054102022 -0.09552053 -0.09553626
000340 36 0f 7f bd e6 f6 90 bd 09 25 5d 3d 57 ee 1d bd
       -0.062270366 -0.07078342 0.053990398 -0.038557377
000350 87 3e e9 3d f3 79 1f bd f5 8c 26 bc c1 73 69 bb
       0.11388879 -0.03893466 -0.010165443 -0.0035621973
000360 fe 98 d5 3d 66 92 b2 3d bb 53 83 bd e8 3a 5d bd
       0.104295716 0.087193295 -0.06412455 -0.054011256
000370 55 58 6f bd 35 d8 99 bc da cb 37 bd 02 ce 19 3e
       -0.05843385 -0.018779853 -0.044872142 0.15019992
000380 e9 74 7f 3c e2 05 54 bc 9b 5e 80 bd 23 e4 88 3d
       0.015591838 -0.012940856 -0.062680446 0.066841386
000390 0d cd a6 3d b6 f8 a4 bc 98 57 2c bd 57 8b 5d 3d
       0.08144579 -0.020138126 -0.042075723 0.054087963
0003a0 57 d2 03 3e 1f 21 35 3d c1 4f 37 bc 5e 90 93 bc
       0.12873207 0.04422104 -0.011188448 -0.018013176
0003b0 17 3b 44 3d 8d 26 27 bc a0 5e 84 bd a6 a0 cf bc
       0.047907915 -0.010202062 -0.06463361 -0.025345158
0003c0 dc 1e 54 3b 98 da 7f 3c 3c da f2 3d 0f 63 a8 3c
       0.0032367026 0.015616082 0.11858031 0.020555047
0003d0 f8 77 36 3e 6a 94 d2 3d c9 cc 04 3d d4 3d 78 bd
       0.17819202 0.10282214 0.03242186 -0.06060584
0003e0 0c ed f0 3b 1d 48 71 bd 66 58 fa 3d bd ca fe 3d
       0.007352477 -0.058906663 0.12223892 0.12441013
0003f0 be d9 f2 3d fe bd 91 bd d6 5a da bd 60 ae dd bd
       0.11857937 -0.07116316 -0.10661857 -0.10824275

fc_2.bias f4 [84]
000000 5f 18 00 be e1 27 82 bd 7b 55 0a bd de 4e 32 3b
       -0.12509297 -0.063552625 -0.033772927 0.0027207653
000010 23 18 00 bd ae 39 7b 3d 06 57 8f 3d 8f 6f c7 bb
       -0.03127302 0.061334305 0.0699902 -0.006086297
000020 24 e9 87 bd 54 10 67 3b db e0 3b bb 27 f5 9b 3c
       -0.06636265 0.0035257535 -0.002866796 0.019037796
000030 12 6e 9e 3d 16 98 08 bd 7e ab 83 b7 bf 64 1c 3b
       0.07735838 -0.033348165 -1.5696274e-05 0.002386376
000040 9a a0 3e bd 64 8f 52 bc 54 68 38 3d ad 48 6b bd
       -0.04653988 -0.01285157 0.04502137 -0.057442356
000050 79 5d fc bb e7 39 87 bd 80 4c 89 bd 5b 29 a5 3d
       -0.0077015725 -0.06602841 -0.06704044 0.080645286
000060 b6 cc 8f bd 20 3e 44 bd ae 47 4a 3c 3e 75 e3 ba
       -0.070214674 -0.04791081 0.012346191 -0.0017353666
000070 78 4b 63 bd 60 28 96 bc 76 82 9e 3d c1 a8 86 3d
       -0.055491894 -0.0183298 0.07739727 0.06575156
000080 d0 4f 66 3d 63 7b 41 3d c8 2e 0c 3c a2 58 70 bd
       0.05622846 0.04723681 0.008556075 -0.058678277
000090 5e cb 03 be 5a 85 a5 3d b2 3a c6 bd ab 23 8c 3c
       -0.12870547 0.080820754 -0.09679164 0.017106852
0000a0 ae 72 53 bd 33 af 6d bd 74 5a b9 3d 83 5b 99 bc
       -0.05162304 -0.05802841 0.09050456 -0.018720394
0000b0 b4 0f 59 bd 36 d5 d5 3d 3d 2b 2a 3c c7 03 b3 3d
       -0.05299349 0.104410574 0.010386285 0.08740955
0000c0 0a ea 40 bc bf 3a 7f 3d f0 cd 91 bb f2 d6 8c 3d
       -0.011774549 0.062311884 -0.0044495985 0.06876935
0000d0 76 74 9a 3a 86 2e d7 3c 4e 7c cd 3d fc 43 87 3d
       0.0011783976 0.026267301 0.10033475 0.06604764
0000e0 6b e7 bd bc 9c 80 c3 3d f5 c4 d2 bd f7 4a 10 3d
       -0.023181638 0.09546015 -0.10291473 0.035227742
0000f0 e9 b1 96 bd d7 e2 9d bd a2 7e 79 bd 36 2c e9 3d
       -0.073581524 -0.07709282 -0.060911782 0.11385386
000100 f8 08 1a bd ed aa 16 bb f8 a4 18 bc 02 28 19 bb
       -0.03760621 -0.0022990063 -0.009316675 -0.0023369794
000110 68 88 99 bd a1 39 b9 3d e0 55 8d bc f2 9f 90 bd
       -0.074967206 0.09044195 -0.017252862 -0.07061757
000120 73 e0 04 3c a7 a1 d8 3d 61 7d a0 3d c9 9c 9f 3d
       0.0081101535 0.10577708 0.07836414 0.07793576
000130 2c 3a 8c bd 4e 3a 87 3c 7b f3 04 bd be a7 c0 3a
       -0.06847033 0.016507294 -0.032458764 0.0014698429
000140 69 fe b5 3d cd f8 2e 3d 3f 41 bb 3c 45 37 20 bd
       0.088864155 0.042717744 0.02285826 -0.03911521

fc_3.weight f4 [10, 84]
000000 2c 66 2b 3e d6 64 ab bd cd a4 c8 bd bb 85 cc 3d
       0.16738194 -0.08368842 -0.09797058 0.099864446
000010 95 d2 bf bd 24 79 d5 3d 38 64 ba 3d 6f 4f a8 bc
       -0.09366337 0.10423496 0.091011465 -0.02054569
000020 c7 d3 75 3d 87 02 31 bc 4b 52 c5 bd 84 44 68 3d
       0.06001642 -0.010803825 -0.09634837 0.056705967
000030 55 db 9e bd e8 61 a3 3d 21 22 1b 3e b7 21 5a 3e
       -0.07756678 0.079776585 0.15149738 0.21301924
000040 72 f5 81 3d 1d 9e ef bc b0 74 18 3e 56 72 e4 bd
       0.06345643 -0.029250199 0.14888263 -0.1115462
000050 22 f9 1b be c2 3f 83 bd 48 5a 31 be 8d 66 05 3e
       -0.15231755 -0.06408645 -0.17319596 0.13027401
000060 31 0b b5 3d d3 e3 79 bd 6f ab fd 3d b3 f2 13 3e
       0.08840025 -0.061008286 0.12386214 0.14448051
000070 cf 78 80 bd 18 7f 0e bc 8b 4a 0e be 5e e9 4c bd
       -0.062730424 -0.008697294 -0.13895623 -0.050027244
000080 9f e0 e7 bd d9 d5 ce bb 53 45 2f be 24 80 ff 3d
       -0.1132214 -0.0063121137 -0.17116289 0.12475613
000090 36 38 bc 3c a0 0e cd bd 61 dd 85 3d d2 83 58 bd
       0.022976022 -0.10012555 0.06536365 -0.05286009
0000a0 ef 3e 01 bc 52 c5 02 3e 5b 84 28 be 3d 4f 22 3e
       -0.00788854 0.12770584 -0.1645674 0.1585054
0000b0 a5 e5 d2 3d 82 a0 83 bb 2a ec 92 3d 51 73 0e 3e
       0.102977075 -0.0040169368 0.07173951 0.13911177
0000c0 2d 6e 86 3d 37 44 d4 bc 8a 3c dd 3d 86 f5 22 3c
       0.06563983 -0.025911434 0.108025625 0.009946233
0000d0 64 4c cb 3d e3 69 07 be bb 3e 25 3d 7d e0 a8 3d
       0.0992668 -0.13223986 0.040343028 0.08245943
0000e0 d0 af bf 3d aa 81 14 3e 59 30 90 bd c3 54 c5 bc
       0.093597054 0.14502588 -0.070404716 -0.02408827
0000f0 d6 11 bd bd 6a c2 6f 3c e2 61 dc 3d 9b b2 73 bd
       -0.092319176 0.014633754 0.10760857 -0.059496503
000100 60 2c 93 3d 07 7f c9 bd f1 93 9c bd 23 51 f1 3d
       0.07186198 -0.09838682 -0.07645405 0.11783054
000110 2a 21 0f be aa a3 27 be 0e 68 98 3c 72 09 53 be
       -0.13977495 -0.16371027 0.018604305 -0.20609072
000120 40 85 d6 ba f2 0b 1d 3c 6f 8b a7 bd 2b 5b 19 be
       -0.0016366616 0.0095853675 -0.08180892 -0.14976184
000130 b5 71 19 bd 12 02 e0 3d 7b d3 1a be 4e db 0e be
       -0.037461955 0.10937895 -0.15119736 -0.13950846
000140 7e 49 19 be 8e 76 fe bd bf c8 2a 3e 78 0d 93 3d
       -0.14969441 -0.12424956 0.16678141 0.07180303
000150 e6 6e 2c bd 8f 3b f4 bd ef de 26 be 7e 7f 38 bd
       -0.04209795 -0.119254224 -0.1629598 -0.04504346
000160 3c d1 0f bd 1e 09 42 be 4e 48 73 bc 58 f8 2b 3d
       -0.03511165 -0.1894879 -0.014848782 0.041984886
000170 4c 8a 5b bd 4f d9 ee 3d d0 b1 76 3d fe cf e8 3d
       -0.053598687 0.11662542 0.06022817 0.11367796
000180 ea 75 b7 bd 6b a1 04 bc fc 58 30 3e 06 f2 1d 3d
       -0.08958037 -0.008095126 0.17221445 0.03856089
000190 3b 7f d6 bd d9 86 ed bd 10 44 37 be cb 0c 45 be
       -0.10473486 -0.11597986 -0.17897058 -0.19243161
0001a0 52 76 c6 bd 1e f4 86 3d 59 8a 2f bd 40 cd 7a bd
       -0.096905366 0.065895304 -0.042856548 -0.061230898
0001b0 fb ff 1b 3e f0 ee 50 3d 54 81 8e bd 61 86 b9 3d
       0.15234368 0.05100912 -0.06958261 0.09058834
0001c0 e4 ca 87 bd 02 f0 7b 3d 62 66 89 3d 38 c3 45 be
       -0.06630495 0.061508186 0.06708981 -0.19312751
0001d0 12 52 81 3d 34 c3 5c 3b b7 3a 22 3d 45 e6 93 bd
       0.06314482 0.0033685686 0.039606776 -0.07221655
0001e0 8c 28 b3 3d 87 67 78 3d ce 48 94 bd b3 41 a5 bd
       0.08747968 0.060645606 -0.07240449 -0.08069172
0001f0 46 ed 53 3e 70 bb d7 bd 38 eb e9 3d a4 f6 34 3e
       0.20695981 -0.10533798 0.114218175 0.17672211
000200 d7 e9 04 be 1c d3 22 3e b2 85 3a be 93 86 6a bd
       -0.12979828 0.15900844 -0.18215063 -0.057257246
000210 16 fa 38 be 85 b7 19 be da d2 c4 3d 25 fc ba bd
       -0.1806415 -0.15011413 0.09610529 -0.09130124
000220 c5 16 1d be 75 66 2b 3e 80 77 81 3b d2 61 84 bd
       -0.15340717 0.16738303 0.003951013 -0.0646397
000230 52 7a 24 3d f8 07 a1 3d c5 ef 15 b9 9b 24 19 3d
       0.040155716 0.07862848 -0.00014299068 0.037388425
000240 eb f0 b9 3d 62 ca e2 bd 0b 97 aa bd 92 02 24 3e
       0.090791546 -0.11073758 -0.083295904 0.16016605
000250 be 1d a2 bb e3 4d 21 3d c7 6f fa 3d b1 89 a1 bd
       -0.004947393 0.03938092 0.12228351 -0.07887591
000260 2d 69 5f ba 65 e0 7f bc bf 24 c3 bc 12 d9 0b bc
       -0.00085224473 -0.015617465 -0.023821233 -0.00853564
000270 1b a7 28 be 9a 36 d1 3c 66 08 4d 3a a9 55 71 3d
       -0.16469996 0.025538731 0.0007821381 0.058919583
000280 64 93 de 3d ee 21 28 3e 10 a6 54 bd 5c b1 2d be
       0.10867956 0.16419193 -0.051916182 -0.16962188
000290 53 94 24 be 13 e1 16 3e 83 d4 a1 bd dc c2 5e bd
       -0.16072206 0.14734297 -0.079018615 -0.05438505
0002a0 db cf 0c 3e c5 0f ab 3d 75 7c fc bd a5 b7 de bd
       0.13751166 0.08352617 -0.12328426 -0.10874871
0002b0 dd ff bc bc 24 fa 0c 3e 53 c8 0b 3e 16 be fd bb
       -0.023071224 0.13767296 0.13650636 -0.0077436073
0002c0 a9 41 44 bd bf fd 0a be 65 0b ee 3d 9a 8a 02 3e
       -0.04791418 -0.13573359 0.11623267 0.12748185
0002d0 80 4a 04 3e 44 27 da 3d 26 a6 3c 3e 16 6e ef bd
       0.12919044 0.106520206 0.18422756 -0.11690919
0002e0 e2 09 ee bc 15 55 0c 3d f4 dc b4 bd c0 28 00 bd
       -0.029057447 0.034260828 -0.08831206 -0.031288862
0002f0 1d 45 c7 bc 72 b0 25 bd f5 a8 e3 3c b2 4d cf bd
       -0.024324948 -0.040451474 0.027790526 -0.10122241
000300 c3 4d a4 3b c5 a1 1c 3e 96 c1 6d 3d 44 83 03 3d
       0.0050141527 0.15296085 0.058045946 0.032107607
000310 1d df 2c 3c b9 7d 08 3e 53 8e 06 be bd 5a c1 bd
       0.010551241 0.1332921 -0.1314023 -0.09441135
000320 b3 f8 a3 3d 94 40 bd 3d 6e c5 0b be f7 31 17 3e
       0.0800642 0.09240833 -0.13649532 0.14765154
000330 26 0c f7 bb 4f ce 8e 3b a5 5d 1f 3d 94 e2 13 be
       -0.00753929 0.00435809 0.038907666 -0.14441901
000340 27 3e 94 3c f2 13 03 be 58 66 fb bd 04 1c 58 bc
       0.018096043 -0.12800577 -0.1227538 -0.013190273
000350 5f 3a 2b 3e eb d5 2a 3c eb 27 c7 3d 81 76 02 3e
       0.16721486 0.010426979 0.097244106 0.12740518
000360 83 fa 24 3d 19 b6 f2 bd 04 63 1b be 9f 62 d4 bd
       0.04027797 -0.118511386 -0.1517449 -0.10370373
000370 84 94 99 3d 30 f7 9b 3d 38 7e 05 3e cd 22 c0 3d
       0.0749903 0.07615507 0.1303643 0.09381638
000380 d4 3c 0a bd 26 4c e3 bb 8e 68 0f 3e 7a bc 11 bc
       -0.033749416 -0.006936568 0.14004728 -0.008895034
000390 15 3b 3e 3d 50 8c 0e 3e 17 c5 6e bd d9 41 c9 bc
       0.046443064 0.13920712 -0.05829343 -0.024567531
0003a0 71 18 01 bd 4e 48 e0 3d 88 e3 1e 3e 8d 0a bd bd
       -0.03151745 0.10951291 0.15516484 -0.09230528
0003b0 da b2 a9 3c 7d 70 9d 3d 8b dd dd bd fe 2a 21 be
       0.020715166 0.07687471 -0.108332716 -0.15739056
0003c0 ca ac ab 3d 76 22 b9 3d 28 ec dd 3d 9d 19 a2 bd
       0.08382566 0.09039776 0.10836059 -0.079150416
0003d0 d8 c4 04 bd 47 bf e6 3d 8f cd 0f 3e 1c 55 e1 3d
       -0.032414287 0.11266952 0.14043258 0.110025615
0003e0 ca b9 99 39 dd c4 61 3d c4 7a c1 3d 52 6a 33 be
       0.00029320858 0.055119384 0.09447244 -0.17521027
0003f0 7d e4 b4 3c ce 3d fd 3d eb 3e b0 3d ee ef ca 3b
       0.022081608 0.12365304 0.08605751 0.0061931526

fc_3.bias f4 [10]
000000 4d 38 cd ba 59 7a de 3b 97 73 d1 3c f7 d6 64 3d
       -0.0015657038 0.0067894873 0.025567813 0.05586907
000010 ed 89 54 bd f4 d7 b8 3d e3 90 a4 bd 46 13 db bc
       -0.05188935 0.09025565 -0.080354474 -0.026742589
000020 2e 08 d4 3d 21 9c 80 bd
       0.10353123 -0.06279779
